…
        loss_decode=dict(
            type='CrossEntropyLoss', use_sigmoid=False, loss_weight=1.0),
        num_clips=4),
    train_cfg=dict(),
    test_cfg=dict(mode='whole'))
work_dir = 'work_dirs/dinov3_vitb16_tv3s_frozen_2sample_2gpu_iter160k_lr6e-5'
gpu_ids = range(0, 1)

fatal: not a git repository (or any parent up to mount point /)
Stopping at filesystem boundary (GIT_DISCOVERY_ACROSS_FILESYSTEM not set).
2026-04-29 10:58:44,891 - mmseg - INFO - EncoderDecoder_clips(
  (backbone): DINOv3BackboneHF(
    (backbone): DINOv3ViTModel(
      (embeddings): DINOv3ViTEmbeddings(
        (patch_embeddings): Conv2d(3, 768, kernel_size=(16, 16), stride=(16, 16))
      )
      (rope_embeddings): DINOv3ViTRopePositionEmbedding()
      (layer): ModuleList(
        (0-11): 12 x DINOv3ViTLayer(
          (norm1): LayerNorm((768,), eps=1e-05, elementwise_affine=True)
          (attention): DINOv3ViTAttention(
            (k_proj): Linear(in_features=768, out_features=768, bias=False)
            (v_proj): Linear(in_features=768, out_features=768, bias=True)
            (q_proj): Linear(in_features=768, out_features=768, bias=True)
            (o_proj): Linear(in_features=768, out_features=768, bias=True)
          )
          (layer_scale1): DINOv3ViTLayerScale()
          (drop_path): Identity()
          (norm2): LayerNorm((768,), eps=1e-05, elementwise_affine=True)
          (mlp): DINOv3ViTMLP(
            (up_proj): Linear(in_features=768, out_features=3072, bias=True)
            (down_proj): Linear(in_features=3072, out_features=768, bias=True)
            (act_fn): GELUActivation()
          )
          (layer_scale2): DINOv3ViTLayerScale()
        )
      )
      (norm): LayerNorm((768,), eps=1e-05, elementwise_affine=True)
    )
  )
  (decode_head): TV3SHead_shift(
    input_transform=multiple_select, ignore_index=255, align_corners=False
    (loss_decode): CrossEntropyLoss()
    (conv_seg): Conv2d(128, 124, kernel_size=(1, 1), stride=(1, 1))
    (dropout): Dropout2d(p=0.1, inplace=False)
    (linear_c4): MLP(
      (proj): Linear(in_features=768, out_features=256, bias=True)
    )
    (linear_c3): MLP(
      (proj): Linear(in_features=768, out_features=256, bias=True)
    )
    (linear_c2): MLP(
      (proj): Linear(in_features=768, out_features=256, bias=True)
    )
    (linear_c1): MLP(
      (proj): Linear(in_features=768, out_features=256, bias=True)
    )
    (vs): ShiftedMambaBlocks(
      (drop_path): DropPath()
      (layers): ModuleList(
        (0-1): 2 x VideoMambaBlock(
          (mixer): Mamba(
            (in_proj): Linear(in_features=256, out_features=1024, bias=False)
            (conv1d): Conv1d(512, 512, kernel_size=(4,), stride=(1,), padding=(3,), groups=512)
            (act): SiLU()
            (x_proj): Linear(in_features=512, out_features=48, bias=False)
            (dt_proj): Linear(in_features=16, out_features=512, bias=True)
            (out_proj): Linear(in_features=512, out_features=256, bias=False)
          )
          (norm): RMSNorm()
          (drop_path): Identity()
        )
        (2-7): 6 x VideoMambaBlock(
          (mixer): Mamba(
            (in_proj): Linear(in_features=256, out_features=1024, bias=False)
            (conv1d): Conv1d(512, 512, kernel_size=(4,), stride=(1,), padding=(3,), groups=512)
            (act): SiLU()
            (x_proj): Linear(in_features=512, out_features=48, bias=False)
            (dt_proj): Linear(in_features=16, out_features=512, bias=True)
            (out_proj): Linear(in_features=512, out_features=256, bias=False)
          )
          (norm): RMSNorm()
          (drop_path): DropPath()
        )
      )
      (norm_f): RMSNorm()
    )
    (linear_fuse): ConvModule(
      (conv): Conv2d(1024, 256, kernel_size=(1, 1), stride=(1, 1), bias=False)
      (bn): SyncBatchNorm(256, eps=1e-05, momentum=0.1, affine=True, track_running_stats=True)
      (activate): ReLU(inplace=True)
    )
    (linear_pred): Conv2d(256, 124, kernel_size=(1, 1), stride=(1, 1))
    (linear_pred2): Conv2d(256, 124, kernel_size=(1, 1), stride=(1, 1))
  )
)
2026-04-29 10:58:44,894 - mmseg - INFO - 
Number of parameters (in millions): 4.634
2026-04-29 10:58:44,894 - mmseg - INFO - 
Number of parameters (in millions): 0.000
2026-04-29 10:58:44,894 - mmseg - INFO - Number of parameters (in millions) for decoder: 4.634

flip video:  True
flip video:  True
fatal: not a git repository (or any parent up to mount point /)
…
