…
            shift_size=10,
            real_shift=True,
            model_type=0),
        loss_decode=dict(
            type='CrossEntropyLoss', use_sigmoid=False, loss_weight=1.0),
        num_clips=4),
    train_cfg=dict(),
    test_cfg=dict(mode='whole'))
work_dir = 'work_dirs/dinov3_convnext_base_tv3s_ft_2sample_2gpu_iter160k_lr3e-5'
gpu_ids = range(0, 1)

2026-05-06 10:30:48,525 - mmseg - INFO - EncoderDecoder_clips(
  (backbone): DINOv3ConvNextBackboneHF(
    (backbone): DINOv3ConvNextModel(
      (stages): ModuleList(
        (0): DINOv3ConvNextStage(
          (downsample_layers): ModuleList(
            (0): Conv2d(3, 128, kernel_size=(4, 4), stride=(4, 4))
            (1): DINOv3ConvNextLayerNorm((128,), eps=1e-06, elementwise_affine=True)
          )
          (layers): ModuleList(
            (0-2): 3 x DINOv3ConvNextLayer(
              (depthwise_conv): Conv2d(128, 128, kernel_size=(7, 7), stride=(1, 1), padding=(3, 3), groups=128)
              (layer_norm): DINOv3ConvNextLayerNorm((128,), eps=1e-06, elementwise_affine=True)
              (pointwise_conv1): Linear(in_features=128, out_features=512, bias=True)
              (activation_fn): GELUActivation()
              (pointwise_conv2): Linear(in_features=512, out_features=128, bias=True)
              (drop_path): Identity()
            )
          )
        )
        (1): DINOv3ConvNextStage(
          (downsample_layers): ModuleList(
            (0): DINOv3ConvNextLayerNorm((128,), eps=1e-06, elementwise_affine=True)
            (1): Conv2d(128, 256, kernel_size=(2, 2), stride=(2, 2))
          )
          (layers): ModuleList(
            (0-2): 3 x DINOv3ConvNextLayer(
              (depthwise_conv): Conv2d(256, 256, kernel_size=(7, 7), stride=(1, 1), padding=(3, 3), groups=256)
              (layer_norm): DINOv3ConvNextLayerNorm((256,), eps=1e-06, elementwise_affine=True)
              (pointwise_conv1): Linear(in_features=256, out_features=1024, bias=True)
              (activation_fn): GELUActivation()
              (pointwise_conv2): Linear(in_features=1024, out_features=256, bias=True)
              (drop_path): Identity()
            )
          )
        )
        (2): DINOv3ConvNextStage(
          (downsample_layers): ModuleList(
            (0): DINOv3ConvNextLayerNorm((256,), eps=1e-06, elementwise_affine=True)
            (1): Conv2d(256, 512, kernel_size=(2, 2), stride=(2, 2))
          )
          (layers): ModuleList(
            (0-26): 27 x DINOv3ConvNextLayer(
              (depthwise_conv): Conv2d(512, 512, kernel_size=(7, 7), stride=(1, 1), padding=(3, 3), groups=512)
              (layer_norm): DINOv3ConvNextLayerNorm((512,), eps=1e-06, elementwise_affine=True)
              (pointwise_conv1): Linear(in_features=512, out_features=2048, bias=True)
              (activation_fn): GELUActivation()
              (pointwise_conv2): Linear(in_features=2048, out_features=512, bias=True)
              (drop_path): Identity()
            )
          )
        )
        (3): DINOv3ConvNextStage(
          (downsample_layers): ModuleList(
            (0): DINOv3ConvNextLayerNorm((512,), eps=1e-06, elementwise_affine=True)
            (1): Conv2d(512, 1024, kernel_size=(2, 2), stride=(2, 2))
          )
          (layers): ModuleList(
            (0-2): 3 x DINOv3ConvNextLayer(
              (depthwise_conv): Conv2d(1024, 1024, kernel_size=(7, 7), stride=(1, 1), padding=(3, 3), groups=1024)
              (layer_norm): DINOv3ConvNextLayerNorm((1024,), eps=1e-06, elementwise_affine=True)
              (pointwise_conv1): Linear(in_features=1024, out_features=4096, bias=True)
              (activation_fn): GELUActivation()
              (pointwise_conv2): Linear(in_features=4096, out_features=1024, bias=True)
              (drop_path): Identity()
            )
          )
        )
      )
      (layer_norm): LayerNorm((1024,), eps=1e-06, elementwise_affine=True)
      (pool): AdaptiveAvgPool2d(output_size=1)
    )
  )
  (decode_head): TV3SHead_shift(
    input_transform=multiple_select, ignore_index=255, align_corners=False
    (loss_decode): CrossEntropyLoss()
    (conv_seg): Conv2d(128, 124, kernel_size=(1, 1), stride=(1, 1))
    (dropout): Dropout2d(p=0.1, inplace=False)
    (linear_c4): MLP(
      (proj): Linear(in_features=1024, out_features=256, bias=True)
    )
    (linear_c3): MLP(
      (proj): Linear(in_features=512, out_features=256, bias=True)
    )
    (linear_c2): MLP(
      (proj): Linear(in_features=256, out_features=256, bias=True)
    )
    (linear_c1): MLP(
      (proj): Linear(in_features=128, out_features=256, bias=True)
    )
    (vs): ShiftedMambaBlocks(
      (drop_path): DropPath()
      (layers): ModuleList(
        (0-1): 2 x VideoMambaBlock(
          (mixer): Mamba(
            (in_proj): Linear(in_features=256, out_features=1024, bias=False)
            (conv1d): Conv1d(512, 512, kernel_size=(4,), stride=(1,), padding=(3,), groups=512)
            (act): SiLU()
            (x_proj): Linear(in_features=512, out_features=48, bias=False)
            (dt_proj): Linear(in_features=16, out_features=512, bias=True)
            (out_proj): Linear(in_features=512, out_features=256, bias=False)
          )
          (norm): RMSNorm()
          (drop_path): Identity()
        )
        (2-7): 6 x VideoMambaBlock(
          (mixer): Mamba(
            (in_proj): Linear(in_features=256, out_features=1024, bias=False)
            (conv1d): Conv1d(512, 512, kernel_size=(4,), stride=(1,), padding=(3,), groups=512)
            (act): SiLU()
            (x_proj): Linear(in_features=512, out_features=48, bias=False)
            (dt_proj): Linear(in_features=16, out_features=512, bias=True)
            (out_proj): Linear(in_features=512, out_features=256, bias=False)
          )
          (norm): RMSNorm()
          (drop_path): DropPath()
        )
      )
      (norm_f): RMSNorm()
    )
    (linear_fuse): ConvModule(
      (conv): Conv2d(1024, 256, kernel_size=(1, 1), stride=(1, 1), bias=False)
      (bn): SyncBatchNorm(256, eps=1e-05, momentum=0.1, affine=True, track_running_stats=True)
      (activate): ReLU(inplace=True)
    )
    (linear_pred): Conv2d(256, 124, kernel_size=(1, 1), stride=(1, 1))
    (linear_pred2): Conv2d(256, 124, kernel_size=(1, 1), stride=(1, 1))
  )
)
2026-05-06 10:30:48,529 - mmseg - INFO - 
Number of parameters (in millions): 91.906
2026-05-06 10:30:48,530 - mmseg - INFO - 
Number of parameters (in millions): 87.566
2026-05-06 10:30:48,530 - mmseg - INFO - Number of parameters (in millions) for decoder: 4.339

flip video: flip video:   TrueTrue

fatal: not a git repository (or any parent up to mount point /)
…
